output/0.pth (torch, 207615 bytes, 9 tensors)

enc.weight_ih f4 [256, 3]
0.08803294 -0.113906994 0.016385721 -0.074565604 -0.11614258 -0.019157376 0.0371715 0.045972668
-0.10222802 0.02755467 0.17628579 -0.072504856 0.0058220844 -0.03851202 -0.07898641 -0.077237
-0.11832394 -0.031993534 0.002397166 -0.04659335 0.10520113 0.003120533 0.044658132 0.0018662857
0.054717313 0.13786988 -0.086786695 0.02058853 -0.052877784 -0.22271708 -0.046953373 0.013866272
0.116479635 0.10569388 0.050690655 0.16662821 -0.11559293 -0.09133683 0.032917008 0.045366287
0.047606107 -0.012741017 0.038853902 -0.11809061 -0.07106946 0.113676526 -0.10986748 0.023596033
-0.052180387 0.058110073 -0.042316925 0.11162393 0.097068496 -0.034431152 0.04637254 -0.016116302
0.073842786 -0.12091589 0.076818004 -0.024508335 0.07781569 0.12130793 0.068753265 0.11774251
0.014256728 0.12370127 0.0018804758 0.0049562645 0.016148401 -0.07751042 -0.11310944 -0.062180318
0.035004325 -0.101489276 -0.105812564 0.030385865 0.11552827 0.012216933 -0.034783337 -0.11500282
-0.040657386 -0.048529617 0.1232763 -0.033085104 -0.0041731237 -0.0121855335 0.029900743 -0.0967158
-0.00068388553 0.082216695 0.03861395 -0.015054343 -0.054105386 0.08382141 -0.02284878 0.054231975
0.12302151 -0.101974644 0.052156523 -0.026399795 -0.10404789 -0.03149353 -0.08073797 -0.0870655
-0.041313846 0.044027936 -0.2591236 -0.07416601 -0.11265999 0.073576815 0.0359159 0.07928853
-0.01752477 0.07096171 0.036914337 0.021983799 0.118648574 -0.12434195 0.03865298 0.08228558
-0.08386914 -0.32662305 -0.13733931 -0.057050455 -0.10566458 -0.023911428 -0.03698827 0.023583392
0.11989076 0.123533696 0.0060460404 -0.07006546 -0.11139283 -0.11092412 -0.015873918 -0.08830974
-0.031049037 0.12068976 0.02951603 -0.041644182 -0.0068615177 -0.0071451925 0.081663355 -0.04730245
0.046465904 -0.08949363 -0.0902553 0.031387236 0.123624526 0.013282249 -0.065313205 0.03181785
-0.07959793 0.11879036 -0.11634077 -0.07096505 0.045866694 0.06760921 -0.0021085984 -0.070368774
0.041229643 -0.054196943 0.04766488 -0.04025766 0.10240685 -0.084288575 -0.098699726 0.009753393
0.089918576 0.030088512 0.06399499 -0.025159657 0.06350979 -0.0112259295 -0.01801953 -0.09598767
-0.038175225 -0.0896067 0.09802176 -0.045638677 0.010543683 0.038283966 -0.027067486 -0.116219684
0.07235045 0.017843874 -0.022091046 0.03265867 0.09739916 0.08222774 0.40119442 0.2867861
0.04939017 0.1077503 -0.098835744 -0.007747063 -0.039622486 -0.008984546 0.007709197 0.60461
-0.017089188 -0.01117737 0.11702382 0.03192022 -0.10556531 -0.010644252 0.013933618 0.05724565
0.0326229 -0.05542728 -0.010025068 -0.25051397 0.10342508 0.09337623 -0.026614875 0.110480055
0.04170679 -0.067147054 -0.011005233 -0.0056704087 0.10131627 -0.09698095 0.017063428 0.07587434
0.10835478 0.023505738 0.029709456 0.08160343 -0.082345486 0.09226482 0.043213908 -0.021814853
-0.10953477 0.11204681 0.057615444 -0.09813925 -0.09406771 -0.11727328 -0.010552533 -0.009591121
0.04602121 0.014184533 0.061822027 -0.117143735 -0.088090315 -0.04436622 -0.013224184 0.071699925
0.036207374 0.01200537 0.09338012 0.035755176 -0.09120254 -0.021657683 -0.10056385 -0.12012746
00000000: 9d4a b43d 1248 e9bd 593b 863c dab5 98bd
00000010: 29dc edbd eeef 9cbc 2541 183d d64d 3c3d
00000020: ed5c d1bd 55ba e13c 4384 343e 6d7d 94bd
00000030: 2fc7 be3b c8be 1dbd a0c3 a1bd 6f2e 9ebd
00000040: d253 f2bd a70b 03bd c619 1d3b abd8 3ebd
00000050: b173 d73d db81 4c3b 72eb 363d 289e f43a
00000060: 431f 603d c32d 0d3e 39bd b1bd 47a9 a83c
00000070: 6096 58bd f20f 64be 2e52 40bd 5c2f 633c
00000080: e08c ee3d 0876 d83d 01a1 4f3d 96a0 2a3e
00000090: fcbb ecbd ce0e bbbd fcd3 063d 00d2 393d
000000a0: 9ffe 423d b3bf 50bc 4525 1f3d 7dd9 f1bd
000000b0: dd8c 91bd 3dcf e83d 3402 e1bd 784c c13c
000000c0: 1abb 55bd d404 6e3d 8354 2dbd 169b e43d
000000d0: d9cb c63d ae07 0dbd 22f1 3d3d 5606 84bc
000000e0: e33a 973d c0a2 f7bd c252 9d3d b4c5 c8bc
000000f0: d55d 9f3d 4b70 f83d 83ce 8c3d fc22 f13d
00000100: 0d95 693c 1757 fd3d 4c7a f63a 2968 a23b
00000110: a749 843c c8bd 9ebd eca5 e7bd cab0 7ebd
00000120: b260 0f3d 9cd9 cfbd 42b4 d8bd c7eb f83c
00000130: 169a ec3d 8829 483c f978 0ebd 9986 ebbd
00000140: 5c88 26bd fec6 46bd 4978 fc3d 3f84 07bd
00000150: b3be 88bb d5a5 47bc 67f2 f43c ef12 c6bd
00000160: c846 33ba 3a61 a83d a929 1e3d 7ea6 76bc
00000170: 9c9d 5dbd 8faa ab3d 5d2d bbbc 5922 5e3d
00000180: b4f2 fb3d 15d8 d0bd 14a2 553d 6244 d8bc
00000190: 0f17 d5bd 5cff 00bd f359 a5bd 664f b2bd
000001a0: b538 29bd a356 343d d9ab 84be 59e4 97bd
000001b0: 48ba e6bd 71af 963d 8d1c 133d 0662 a23d
000001c0: 1b90 8fbc 5f54 913d 7d33 173d 5e17 b43c
000001d0: 06fe f23d fea6 febd 9652 1e3d 5885 a83d
000001e0: 95c3 abbd 233b a7be ada2 0cbe bdad 69bd
000001f0: ac66 d8bd e6e1 c3bc 0381 17bd f531 c13c
00000200: 4989 f53d 3cff fc3d dd1d c63b 7b7e 8fbd
00000210: ed21 e4bd 2f2c e3bd 050a 82bc bddb b4bd
00000220: 8d5a febc 312c f73d 9acb f13c 1793 2abd
00000230: 95d6 e0bb 3822 eabb 1e3f a73d 37c0 41bd
00000240: 0853 3e3d 7048 b7bd c5d7 b8bd e78f 003d
00000250: db2e fd3d ca9d 593c eec2 85bd 6f53 023d
00000260: 3d04 a3bd 5c48 f33d 1244 eebd 2056 91bd
00000270: b7de 3b3d b376 8a3d 6930 0abb 811d 90bd
00000280: 6ae0 283d 9dfd 5dbd 403c 433d 37e5 24bd
00000290: afba d13d 7d9f acbd 1523 cabd b2cc 1f3c
000002a0: 3b27 b83d 2f7c f63c ce0f 833d a01b cebc
000002b0: 6c11 823d f6ec 37bc b29d 93bc 2f95 c4bd
000002c0: a05d 1cbd b883 b7bd a2bf c83d 9fef 3abd
000002d0: 69bf 2c3c a6cf 1c3d a2bc ddbc 9604 eebd
000002e0: 792c 943d 512d 923c 48f8 b4bc 19c5 053d
000002f0: 3679 c73d 0467 a83d 5b69 cd3e a1d5 923e
00000300: 594d 4a3d 30ac dc3d 656a cabd 13db fdbb
00000310: 304b 22bd eb33 13bc 6e9d fc3b b9c7 1a3f
00000320: a0fe 8bbc 4a21 37bc 2faa ef3d c7be 023d
00000330: a032 d8bd 3b65 2ebc d449 643c 6a7a 6a3d
00000340: 979f 053d b707 63bd 2f40 24bc 5e43 80be
00000350: 87d0 d33d 093c bf3d 7007 dabc 5e43 e23d
00000360: bdd4 2a3d 6584 89bd 4b4f 34bc d6ce b9bb
00000370: e87e cf3d f39d c6bd 9ac8 8b3c 0264 9b3d
00000380: 1ce9 dd3d 1b8f c03c 3f61 f33c b31f a73d
00000390: c0a4 a8bd 57f5 bc3d 1101 313d 10b5 b2bc
000003a0: c453 e0bd cc78 e53d 2cfe 6b3d 3bfd c8bd
000003b0: 92a6 c0bd f92c f0bd 88e4 2cbc 1424 1dbc
000003c0: bc80 3c3d 3e66 683c 1839 7d3d 0ee9 efbd
000003d0: b268 b4bd 5ab9 35bd 3faa 58bc 69d7 923d
000003e0: 2f4e 143d 2cb2 443c 143e bf3d 0574 123d
000003f0: 66c8 babd 746b b1bc 6bf4 cdbd 6305 f6bd

enc.weight_hh f4 [256, 64]
0.036951378 -0.102801986 0.08504578 -0.06995511 -0.08687646 0.015160622 0.012202031 0.002710962
-0.11680349 -0.04047371 0.10693355 0.060862485 0.04305543 0.10629847 -0.014900889 -0.11709304
-0.028978048 -0.07788003 0.0032762561 0.06940844 0.12410074 0.01766348 0.038940176 0.019403849
0.09455368 0.025825713 0.030500848 -0.0770407 0.0013961428 -0.11717157 0.05017743 0.017175853
0.078676976 -0.051454067 0.083695956 0.015386287 0.046843387 0.011626882 0.047943138 0.09623998
0.115667015 -0.0782857 -0.1196595 -0.07485498 0.038790792 -0.11347344 0.0026278275 0.088537715
0.04735954 0.015372335 0.122530326 -0.06382328 0.12156463 -0.07917758 -0.10388936 0.08621354
-0.089631185 -0.1201646 0.10435767 -0.023793647 0.010652752 0.09904245 -0.079319924 0.012433612
0.010879032 -0.042875025 0.05232589 0.07857363 0.11198795 -0.071893536 -0.003863607 -0.08292611
0.051187173 -0.030554758 0.067877345 -0.09762253 0.10710606 -0.055050652 0.112480715 0.080929294
0.033362877 0.027135978 0.11039446 -0.06862218 0.0515997 -0.044021104 0.110140145 -0.063986786
-0.10129538 0.03236274 -0.0768862 0.04553635 -0.03765039 0.008271593 0.06806951 -0.06646024
-0.06774186 -0.0028677639 0.0020347713 0.057920966 0.03589231 -0.106817625 0.11143139 -0.11368914
-0.120412365 0.119367525 -0.12431482 0.04036721 0.02609667 0.06991947 0.1119728 0.03846919
0.044657256 0.092782095 -0.039353028 0.07754612 -0.063939124 -0.11487217 -0.10622882 -0.053864717
0.020942856 0.10320401 -0.10404377 -0.030187143 -0.043678045 0.100584395 0.06544779 -0.035222143
-0.018006729 -0.07538466 -0.08200251 -0.030213406 -0.0017499231 0.059413597 0.06354652 -0.009515657
-0.07448341 -0.1054481 0.11202405 0.0036790462 0.042009145 -0.10411604 0.053633012 0.010706793
0.040083464 -0.09072938 0.036270898 0.10545032 -0.055176735 -0.09427107 0.02993303 0.032367773
-0.115992956 0.11859903 0.12175691 0.10979071 0.097098775 0.025251526 -0.052405372 0.06295661
0.096011676 -0.029504187 0.03280949 -0.07287701 -0.06672121 -0.115460426 -0.038351316 -0.03455026
-0.045080326 0.007888018 -0.09061116 -0.12201354 0.015298795 -0.0017569293 0.10523834 -0.04115554
0.06849216 0.10312089 -0.03837416 0.11361357 0.07551011 -0.11589722 -0.034184985 0.079400405
0.08539204 0.03445014 -0.02551266 0.10975861 -0.02258606 -0.057512477 0.004364369 0.047547214
0.058338244 -0.05445291 -0.013321183 -0.0021871629 0.0128220795 -0.06776819 -0.059688855 0.09992596
-0.047540203 0.11687719 0.10460495 0.035602275 -0.08603774 0.05798605 0.122065745 0.10229137
-0.069786735 0.10187052 -0.0537724 0.049717896 0.08337329 -0.09370924 0.10878269 0.094992995
0.075646006 -0.09457847 0.10906803 -0.12359213 -0.062457796 -0.057606537 0.07927693 -0.07225173
-0.05194906 -0.07544485 -0.004293915 0.061239004 -0.124948695 0.04830199 -0.043626532 0.111896574
-0.08216542 -0.054235477 -0.016291715 0.035354827 0.09367676 0.045194373 -0.059383888 -0.048875272
-0.04655005 0.12163037 -0.045675635 0.010896623 0.08524829 -0.1045044 0.106639296 -0.009133366
-0.044995256 0.049767595 -0.016946925 -0.022055244 -0.07034697 0.025856221 0.0068971813 -0.060113266
00000000: 545a 173d d989 d2bd 7b2c ae3d a044 8fbd
00000010: 49ec b1bd 4264 783c 07eb 473c 65aa 313b
00000020: ab36 efbd c3c7 25bd faff da3d f14a 793d
00000030: e45a 303d 03b3 d93d dc22 74bc 7ace efbd
00000040: 5f63 edbc 917f 9fbd 75b6 563b 0326 8e3d
00000050: 8728 fe3d 01b3 903c bc7f 1f3d d2f4 9e3c
00000060: 5ca5 c13d 7290 d33c eadc f93c 84c7 9dbd
00000070: c7fe b63a a6f7 efbd d986 4d3d 60b4 8c3c
00000080: 6521 a13d 80c1 52bd c968 ab3d c416 7c3c
00000090: dade 3f3d ad7e 3e3c 0660 443d 7719 c53d
000000a0: d4e2 ec3d 4154 a0bd 0a10 f5bd 914d 99bd
000000b0: 18e3 1e3d c364 e8bd a137 2c3b 4353 b53d
000000c0: 14fc 413d 3fdc 7b3c 2ef1 fa3d c8b5 82bd
000000d0: e0f6 f83d db27 a2bd f2c3 d4bd b990 b03d
000000e0: 8e90 b7bd dc18 f6bd 79b9 d53d e5ea c2bc
000000f0: e188 2e3c c5d6 ca3d 7c72 a2bd 59b6 4b3c
00000100: f83d 323c b99d 2fbd ac53 563d 36eb a03d
00000110: f059 e53d eb3c 93bd 9234 7dbb 2ad5 a9bd
00000120: a4a9 513d f94d fabc 4703 8b3d 52ee c7bd
00000130: 6c5a db3d cb7c 61bd 4a5c e63d 42be a53d
00000140: 83a7 083d 454c de3c 7e16 e23d c989 8cbd
00000150: 355a 533d 794f 34bd 2891 e13d 810b 83bd
00000160: f473 cfbd cb8e 043d 8376 9dbd 5384 3a3d
00000170: 4c37 1abd 9385 073c 0768 8b3d 4e1c 88bd
00000180: 3fbc 8abd 18f1 3bbb cc59 053b 893e 6d3d
00000190: d103 133d 33c3 dabd 2436 e43d dad5 e8bd
000001a0: c29a f6bd f676 f43d c598 febd 1658 253d
000001b0: afc8 d53c f031 8f3d ff51 e53d df91 1d3d
000001c0: 87ea 363d 8a04 be3d a430 21bd 80d0 9e3d
000001d0: 84f2 82bd 1a42 ebbd 7f8e d9bd 40a1 5cbd
000001e0: 5a90 ab3c a05c d33d e614 d5bd 074b f7bc
000001f0: c0e7 32bd 31ff cd3d 7e09 863d 1845 10bd
00000200: d982 93bc 4663 9abd eff0 a7bd 1b82 f7bc
00000210: ad5d e5ba ac5b 733d ae24 823d 8fe7 1bbc
00000220: c28a 98bd 2cf5 d7bd dd6c e53d 271c 713b
00000230: c811 2c3d ca3a d5bd 4aae 5b3d 8b6b 2f3c
00000240: 8f2e 243d 53d0 b9bd cb90 143d 56f6 d73d
00000250: 0001 62bd 3111 c1bd 1d36 f53c 1294 043d
00000260: b78d edbd 0ce4 f23d b05b f93d f4d9 e03d
00000270: b9db c63d 4adc ce3c 04a7 56bd 65ef 803d
00000280: c5a1 c43d c4b2 f1bc 3e63 063d 8b40 95bd
00000290: 21a5 88bd 8476 ecbd 4516 1dbd 9384 0dbd
000002a0: 26a6 38bd bf3c 013c 5892 b9bd 3ce2 f9bd
000002b0: cca7 7a3c c448 e6ba 3387 d73d b692 28bd
000002c0: 9e45 8c3d 0c31 d33d 392e 1dbd 3bae e83d
000002d0: 0ba5 9a3d 865b edbd 8e05 0cbd ae9c a23d
000002e0: 06e2 ae3d 971b 0d3d edff d0bc 1fc9 e03d
000002f0: 6706 b9bc 3492 6bbd fb02 8f3b dec0 423d
00000300: 15f4 6e3d 040a 5fbd 1741 5abc 8156 0fbb
00000310: b313 523c 0cca 8abd 4d7c 74bd fba5 cc3d
00000320: 84b9 42bd 4f5d ef3d 1f3b d63d b1d3 113d
00000330: 8e34 b0bd c882 6d3d 9bfd f93d 237e d13d
00000340: 59ec 8ebd 7ea1 d03d 7340 5cbd fea4 4b3d
00000350: 9ebf aa3d a1ea bfbd 75c9 de3d b08b c23d
00000360: 4bec 9a3d 5bb2 c1bd 0f5f df3d df1d fdbd
00000370: bfd3 7fbd d5f4 6bbd f15b a23d b7f8 93bd
00000380: 8ac8 54bd d482 9abd f8b3 8cbb c0d5 7a3d
00000390: 1ae5 ffbd 4fd8 453d bcb1 32bd 082a e53d
000003a0: 5846 a8bd 0526 5ebd 3476 85bc 39d0 103d
000003b0: 9ad9 bf3d bc1d 393d 853c 73bd 7031 48bd
000003c0: 44ab 3ebd 5819 f93d 6016 3bbd c087 323c
000003d0: a896 ae3d 6706 d6bd b465 da3d 1da4 15bc
000003e0: f24c 38bd 1bd9 4b3d 47d4 8abc 33ad b4bc
000003f0: 1212 90bd 6dd0 d33c c001 e23b 5439 76bd

enc.bias_ih f4 [256]
-0.08529457 0.062319204 0.06333592 0.11513337 -0.030686589 -0.049715545 -0.07429559 0.11720276
0.001999946 -0.12012706 -0.105238825 0.06350091 -0.10955998 -0.12335886 -0.07605123 0.001689245
0.03814043 -0.1105411 -0.082270555 0.088556185 -0.028096054 0.11610377 -0.007920722 0.076969534
-0.060443062 0.04767058 0.08751282 -0.08222908 0.08828275 0.10823112 0.098931365 0.10642856
-0.05657883 0.106083035 0.050301544 -0.008457493 -0.0581964 -0.10398579 0.10808894 -0.026364349
-0.11797223 0.124015234 0.07560116 0.11253472 -0.008329804 0.07013852 0.10038541 0.010005241
-0.04312258 0.072130114 -0.012514595 -0.11706331 -0.01145107 0.04919751 0.121315435 -0.037749484
0.039085876 -0.12497019 -0.120713964 0.0645227 0.05792948 0.031061228 0.11730285 0.036109477
-0.06292593 -0.10526767 -0.02784124 0.07112406 0.01593702 0.08393668 -0.11330253 0.092821136
0.067433305 -0.114948034 0.029894557 0.0740957 0.005629231 0.061763413 -0.09035583 0.041962285
-0.047576297 0.03558052 -0.074974515 0.058365118 0.11434828 0.07233906 -0.1040485 0.12457669
0.07130019 -0.078863665 -0.08918537 -0.09903975 -0.03418047 -0.04176024 0.03848683 0.05911609
-0.0559809 -0.11487054 0.09966063 0.120711416 -0.07697345 -0.0489399 0.039103825 -0.10175522
-0.0061228154 -0.062174637 0.07894395 -0.049446885 -0.118593 0.00035159718 0.03411718 -0.032926157
-0.018415062 -0.040539823 0.02601529 -0.025360068 -0.036989577 0.07455543 -0.08540283 0.029999038
0.036888383 0.0047306167 -0.011247726 -0.10537558 0.09578119 -0.10458663 -0.008533798 0.08611385
0.08829989 -0.10351785 -0.036273662 0.121244945 -0.034453966 -0.042220693 -0.088289626 -0.06701518
-0.09873808 -0.06906929 -0.046857968 -0.044823617 0.10589362 -0.11596746 -0.079326846 -0.06961017
0.062521055 -0.051466372 0.07184323 0.0042728777 -0.014767189 0.020116225 -0.117296666 0.015473298
0.061911598 -0.042882927 0.008098452 0.056427434 0.08867789 0.09443463 0.074263155 0.00826217
-0.05300394 0.00084086694 0.123583406 0.063540906 0.06343407 0.029100895 0.118343964 -0.07572116
-0.005036781 0.031283595 0.058370795 0.009011453 0.08890551 -0.09476976 0.12178563 0.0643169
-0.11155394 0.079761714 -0.06947269 -0.085419565 -0.031610217 -0.057687216 0.016303018 0.04908721
-0.020325685 0.04930351 -0.09813358 -0.074591346 0.09094771 0.105037354 0.027252203 -0.08333868
-0.059172668 -0.063735686 0.035643887 0.096598946 0.08588827 -0.050630156 0.048233725 0.09340867
-0.05805267 0.057772234 0.06808298 -0.11063596 0.09276423 0.09376119 0.021411529 -0.021543687
-0.118240274 -0.040624924 0.11365256 0.0018139328 -0.119999476 0.00440323 0.07680392 0.02025507
0.10067684 0.0296663 0.08371512 0.09775762 -0.12133407 0.04454042 0.11472291 0.042655293
0.027721506 0.10503889 -0.003402046 0.03346747 0.03636847 -0.10975099 -0.034714147 -0.059476815
0.0956352 -0.07613406 -0.027025428 0.03871075 -0.062245883 -0.08109729 0.011914837 -0.045622762
0.11466559 -0.08180435 -0.026497573 -0.07323847 0.10488255 -0.10215647 0.05333765 0.034590222
-0.07738239 -0.113972425 -0.057619803 -0.07801835 -0.007727837 -0.059043925 0.08664103 -0.043791894
00000000: ebae aebd 6c42 7f3d 43b6 813d 0bcb eb3d
00000010: 7162 fbbc 87a2 4bbd 4928 98bd 0008 f03d
00000020: 8711 033b 2d05 f6bd 7487 d7bd c40c 823d
00000030: fc60 e0bd 92a3 fcbd bfc0 9bbd a869 dd3a
00000040: 2439 1c3d 5f63 e2bd 777d a8bd f25c b53d
00000050: b229 e6bc d0c7 ed3d eac5 01bc 34a2 9d3d
00000060: 2593 77bd 3a42 433d ec39 b33d b867 a8bd
00000070: 96cd b43d 47a8 dd3d 879c ca3d 38f7 d93d
00000080: 34bf 67bd 1042 d93d fe08 4e3d 4c91 0abc
00000090: 595f 6ebd 80f6 d4bd bc5d dd3d 0cfa d7bc
000000a0: 6d9b f1bd b3fb fd3d c8d4 9a3d 9a78 e63d
000000b0: bb79 08bc c9a4 8f3d de96 cd3d 06ed 233c
000000c0: 4da1 30bd f4b8 933d 040a 4dbc e4be efbd
000000d0: 459d 3bbc 5483 493d 3a74 f83d 349f 1abd
000000e0: 8318 203d 5ff0 ffbd e238 f7bd 7a24 843d
000000f0: 7647 6d3d 1e74 fe3c 7a3c f03d 88e7 133d
00000100: 4fdf 80bd 9396 d7bd 5013 e4bc 7ea9 913d
00000110: 5a8e 823c fee6 ab3d 280b e8bd 0219 be3d
00000120: 791a 8a3d e069 ebbd 6ee5 f43c 7dbf 973d
00000130: 6a75 b83b a2fb 7c3d 7a0c b9bd a5e0 2b3d
00000140: 5ddf 42bd e1bc 113d 3d8c 99bd 4310 6f3d
00000150: 6e2f ea3d 8026 943d 6117 d5bd 1022 ff3d
00000160: d605 923d 4683 a1bd d2a6 b6bd 5ad5 cabd
00000170: d200 0cbd c90c 2bbd 5ea4 1d3d b723 723d
00000180: 3a4c 65bd 3f41 ebbd df1a cc3d 8c37 f73d
00000190: 42a4 9dbd 3475 48bd 552b 203d 0a65 d0bd
000001a0: e6a1 c8bb d5aa 7ebd 5ead a13d d188 4abd
000001b0: e3e0 f2bd 9356 b839 75be 0b3d 94dd 06bd
000001c0: 2fdb 96bc 160d 26bd 041e d53c ebbf cfbc
000001d0: 6282 17bd 84b0 983d aee7 aebd 8bc0 f53c
000001e0: 4618 173d 4a03 9b3b 6248 38bc 27cf d7bd
000001f0: ee28 c43d 8431 d6bd 58d1 0bbc 755c b03d
00000200: 93d6 b43d 2b01 d4bd b193 14bd 454f f83d
00000210: 9a1f 0dbd 9bef 2cbd 31d1 b4bd 413f 89bd
00000220: 3137 cabd 3374 8dbd 24ee 3fbd f898 37bd
00000230: c1de d83d 5980 edbd 1d76 a2bd c78f 8ebd
00000240: 0a0b 803d 67ce 52bd 8b22 933d 7f03 8c3b
00000250: 14f2 71bc c8ca a43c 3c39 f0bd b783 7d3c
00000260: 0497 7d3d 02a6 2fbd 5faf 043c 7420 673d
00000270: c19c b53d f166 c13d 4817 983d 0d5e 073c
00000280: a91a 59bd a06d 5c3a 4c19 fd3d bc21 823d
00000290: b9e9 813d 0065 ee3c 525e f23d b213 9bbd
000002a0: 950b a5bb 3a23 003d 3716 6f3d c6a4 133c
000002b0: 1814 b63d a616 c2bd bf6a f93d 94b8 833d
000002c0: 6476 e4bd 1c5a a33d b347 8ebd 74f0 aebd
000002d0: b779 01bd 6e49 6cbd e88d 853c ac0f 493d
000002e0: 0d82 a6bc 7af2 493d 42fa c8bd 59c3 98bd
000002f0: cb42 ba3d d31d d73d 0340 df3c 78ad aabd
00000300: 0a5f 72bd db87 82bd 53ff 113d abd5 c53d
00000310: 30e6 af3d 9161 4fbd ba90 453d 0b4d bf3d
00000320: a3c8 6dbd 94a2 6c3d 176f 8b3d 1b95 e2bd
00000330: 2cfb bd3d de05 c03d 3b67 af3c 637c b0bc
00000340: f527 f2bd 5266 26bd acc2 e83d 7cc1 ed3a
00000350: 49c2 f5bd f848 903b 604b 9d3d f6ed a53c
00000360: a92f ce3d be06 f33c d572 ab3d 2635 c83d
00000370: ff7d f8bd 0470 363d d8f3 ea3d 51b7 2e3d
00000380: 3618 e33c a11e d73d dcf4 5ebb 3015 093d
00000390: 1bf7 143d 21c5 e0bd 6c30 0ebd f69d 73bd
000003a0: 63dc c33d 2dec 9bbd 6e64 ddbc 2a8f 1e3d
000003b0: 8af5 7ebd 5616 a6bd 7336 433c efde 3abd
000003c0: cbd5 ea3d 0a89 a7bd 7011 d9bc 0dfe 95bd
000003d0: aacc d63d 6937 d1bd 9478 5a3d 7aae 0d3d
000003e0: a97a 9ebd 606a e9bd be02 6cbd 16c8 9fbd
000003f0: cc39 fdbb 0bd8 71bd da70 b13d 215f 33bd

enc.bias_hh f4 [256]
0.091504194 0.060665175 0.018777242 0.045512043 0.08807963 0.04576688 0.08829462 0.039635822
-0.05705677 -0.12052154 -0.039163608 0.032531247 -0.046022832 -0.07401055 -0.07998244 -0.1202719
0.005410494 -0.12405161 -0.10668922 0.0016442675 -0.10436289 -0.027004603 -0.01915949 -0.030344378
0.10502449 0.056595735 0.06101213 0.04751298 0.017025292 -0.08842259 0.049274407 -0.06262168
-0.062188417 -0.06414728 0.02940943 -0.08005721 0.028571589 0.08233459 -0.077532336 -0.07294322
-0.06602088 -0.011302525 0.117006674 -0.033399016 -0.049043696 0.049569216 -0.012670544 -0.09336307
0.036194887 0.026302863 -0.041576046 -0.018927263 -0.017561203 -0.109800056 0.008512141 0.06692074
-0.04687566 -0.06290906 0.08578333 0.0060839476 0.11771805 0.089666605 0.09905806 -0.072887644
-0.048714153 -0.033841264 -0.055059135 -0.09735508 -0.0924023 0.098557085 0.015588078 0.04846457
0.08582067 -0.03355894 -0.06255205 -0.09550128 -0.07309697 0.088287644 -0.054329425 -0.06983589
0.057003777 0.057780925 0.048205648 0.030744413 0.07613288 0.050243184 -0.045794986 -0.10560106
-0.037242357 0.09720042 0.05859229 -0.037683368 0.019566245 -0.020623881 0.103587754 -0.09622207
0.011031202 0.05022795 -0.09857344 0.08479446 0.021437798 0.09953049 -0.09901556 0.018958244
0.060055625 0.008920249 0.08555333 0.079212375 0.04697999 0.02972639 -0.0008532971 -0.09617391
0.0998646 0.07068316 -0.076856054 0.08805718 0.072045244 0.1041521 -0.010944007 0.0698997
0.008824056 -0.097331055 0.0862921 0.011175801 -0.09455234 -0.057612833 0.09248152 0.05691472
-0.10525582 -0.004242338 -0.097141944 -0.064784266 0.11533927 -0.079929456 0.08993899 0.012410186
-0.06840872 -0.11260196 -0.0087975105 0.0057766153 -0.028857268 0.04903785 0.07970562 0.031283405
-0.089863226 -0.04464064 -0.06648142 -0.020729154 -0.01540846 0.12462723 0.0794269 0.109487884
0.096196696 0.1140795 -0.05815403 0.08892737 -0.097086065 -0.052194126 -0.034064915 -0.02434762
-0.0038725624 0.062696196 0.10586637 -0.10054076 0.03045913 -0.07701753 0.00045579846 -0.061048806
-0.03920467 0.013816319 0.10056131 -0.073057346 0.113101065 0.049274832 0.013211783 0.035538808
0.07848239 -0.05066022 -0.017974889 0.0419167 -0.015663309 -0.07598578 0.0060200533 -0.10601361
0.12023748 0.011867648 0.11925772 -0.076035716 0.018518217 0.008783783 -0.06765891 0.009290411
0.0389444 0.10680481 -0.01570815 0.037215155 0.1073136 -0.07354694 -0.054717503 0.013051074
-0.11104732 -0.0692409 -0.08962726 0.122973256 -0.0682233 0.06386332 -0.111048184 0.030774305
-0.0648117 -0.05236935 0.09690559 -0.11410573 -0.1022133 -0.101549834 0.07632136 -0.041494388
0.10387347 -0.076216124 -0.06311304 0.088073045 -0.11839142 0.07266815 -0.07399079 -0.0726124
-0.0161427 0.09422866 0.096173204 0.055235162 0.050218936 -0.102879874 -0.08722429 0.106838115
-0.0014287594 -0.08218963 0.06803678 -0.04847654 0.106111936 0.09023164 -0.059274595 -0.053755265
-0.011570463 -0.07437122 -0.08366972 0.0025080247 0.058877584 -0.091794856 0.10240847 0.08704647
0.06584842 -0.02111511 -0.087842904 -0.04597312 0.084525265 -0.06781686 0.042439565 -0.01105203
00000000: 8d66 bb3d 0c7c 783d bbd2 993c d66a 3a3d
00000010: 1863 b43d 0d76 3b3d cfd3 b43d 2c59 223d
00000020: 5cb4 69bd ffd3 f6bd 056a 20bd 7c3f 053d
00000030: 7082 3cbd d892 97bd d5cd a3bd 1d51 f6bd
00000040: 834a b13b c50e febd e17f dabd 7684 d73a
00000050: 36bc d5bd c238 ddbc 5df4 9cbc c694 f8bc
00000060: 1417 d73d eed0 673d dbe7 793d f89c 423d
00000070: a078 8b3c e716 b5bd f6d3 493d cc3f 80bd
00000080: 48b9 7ebd a65f 83bd 0cec f03c 09f5 a3bd
00000090: f70e ea3c 0a9f a83d 46c9 9ebd 4163 95bd
000000a0: f535 87bd 3a2e 39bc 32a1 ef3d 68cd 08bd
000000b0: 0be2 48bd 1709 4b3d 1d98 4fbc 2335 bfbd
000000c0: 1741 143d 1a79 d73c a54b 2abd 590d 9bbc
000000d0: 83dc 8fbc dade e0bd 8276 0b3c be0d 893d
000000e0: b100 40bd 77d6 80bd 2caf af3d da5b c73b
000000f0: 2916 f13d 20a3 b73d f4de ca3d 1e46 95bd
00000100: 7e88 47bd 239d 0abd b085 61bd 1a62 c7bd
00000110: 6b3d bdbd 4cd8 c93d 2365 7f3c c982 463d
00000120: bfc2 af3d 1975 09bd 4a1b 80bd 2d96 c3bd
00000130: ddb3 95bd 27d0 b43d 8888 5ebd 1e06 8fbd
00000140: cb7c 693d b1ab 6c3d 4973 453d b5db fb3c
00000150: 8eeb 9b3d cccb 4d3d 8693 3bbd 5e45 d8bd
00000160: 718b 18bd 0411 c73d 78fe 6f3d e059 1abd
00000170: 6449 a03c 6af3 a8bc d125 d43d 1410 c5bd
00000180: 37bc 343c d3bb 4d3d dfe0 c9bd b8a8 ad3d
00000190: 529e af3c a4d6 cb3d abc8 cabd 524e 9b3c
000001a0: e3fc 753d 3c26 123c 9636 af3d 193a a23d
000001b0: 176e 403d c284 f33c cdaf 5fba d4f6 c4bd
000001c0: d085 cc3d 55c2 903d b566 9dbd 5357 b43d
000001d0: 758c 933d b24d d53d 7e4e 33bc 9327 8f3d
000001e0: c692 103c 8155 c7bd eab9 b03d b51a 373c
000001f0: a8a4 c1bd 6ffb 6bbd f366 bd3d 691f 693d
00000200: 5d90 d7bd 4f03 8bbb 5bf2 c6bd 9dad 84bd
00000210: ff36 ec3d 0eb2 a3bd ef31 b83d 1854 4b3c
00000220: df19 8cbd db9b e6bd 6f23 10bc c349 bd3b
00000230: 1466 ecbc eadb 483d b33c a33d 0723 003d
00000240: 360a b8bd 1bd9 36bd 6927 88bd 30d0 a9bc
00000250: c473 7cbc 903c ff3d 92aa a23d 2f3b e03d
00000260: c602 c53d 83a2 e93d ec32 6ebd 8e1f b63d
00000270: 0fd5 c6bd 82c9 55bd a787 0bbd a974 c7bc
00000280: d1ca 7dbb dd66 803d 78d0 d83d 50e8 cdbd
00000290: 6d85 f93c 5ebb 9dbd 3cf8 ee39 500e 7abd
000002a0: 1395 20bd d85d 623c 17f3 cd3d 179f 95bd
000002b0: 88a1 e73d 68d4 493d 3c76 583c 2491 113d
000002c0: 60bb a03d 1781 4fbd 1340 93bc d8b0 2b3d
000002d0: 5750 80bc 6f9e 9bbd de43 c53b aa1d d9bd
000002e0: 113f f63d 8670 423c 643d f43d 9db8 9bbd
000002f0: 84b3 973c dbe9 0f3c c190 8abd cf36 183c
00000300: 2a84 1f3d 7bbc da3d 61ae 80bc eb6e 183d
00000310: 3cc7 db3d c79f 96bd 761f 60bd 2cd4 553c
00000320: c76c e3bd 2cce 8dbd 7f8e b7bd 67d9 fb3d
00000330: a8b8 8bbd c6ca 823d 3b6d e3bd 651a fc3c
00000340: ffbb 84bd 3e81 56bd 7076 c63d 44b0 e9bd
00000350: 3555 d1bd 5cf9 cfbd 604e 9c3d 05f6 29bd
00000360: 9dbb d43d 3317 9cbd 6941 81bd a45f b43d
00000370: 3377 f2bd 0ad3 943d 7c88 97bd cfb5 94bd
00000380: b23d 84bc f5fa c03d 75f6 c43d 443e 623d
00000390: 5fb2 4d3d afb2 d2bd a6a2 b2bd f1cd da3d
000003a0: 3645 bbba 0953 a8bd de56 8b3d 568f 46bd
000003b0: 3751 d93d 5ecb b83d ebc9 72bd 7b2e 5cbd
000003c0: 0a92 3dbc f04f 98bd 085b abbd ac5d 243b
000003d0: 9f29 713d f1fe bbbd 88bb d13d 6b45 b23d
000003e0: 89db 863d 98f9 acbc fbe6 b3bd 4f4e 3cbd
000003f0: 951b ad3d 91e3 8abd 1cd5 2d3d 9313 35bc

dec.weight_ih f4 [256, 64]
0.09531872 0.07700618 0.035595953 0.10163097 0.1175572 -0.017216835 -0.04312439 -0.08753112
-0.03196545 -0.048481192 -0.005947208 -0.09343559 0.015187471 -0.05651302 -0.032069176 0.121268936
-0.12280986 -0.03819652 -0.09233356 0.10251389 0.056252472 -0.0087449225 0.059261166 -0.11394585
-0.004467074 0.01722228 -0.09977884 -0.021460604 0.11262881 0.08497782 0.009239842 0.12080953
-0.062042918 0.068270944 -0.008287226 0.04050773 -0.026367402 0.04762285 -0.07307842 0.07077259
-0.042431016 0.042094015 0.051122766 0.0638314 0.05532792 -0.08101249 -0.053067733 0.041994676
0.051767997 0.045755066 0.10507893 0.104851305 -0.019405076 -0.020659411 0.043796714 -0.047454942
-0.112378865 -0.062009256 -0.010372467 -0.060059633 0.07300184 -0.088724226 -0.009530841 -0.09789188
-0.012310173 -0.06746959 -0.08172289 -0.06405597 -0.024510194 -0.023046926 0.052959464 0.083579145
0.03251336 -0.03664959 0.09576771 -0.06275812 0.116185285 0.082167536 -0.066185154 0.04089303
-0.09939252 -0.07095922 0.031418335 0.07682282 -0.11048148 0.122810565 -0.088660195 -0.12075374
0.06768672 0.035651848 0.022866992 0.06888608 0.015066704 0.035782613 0.042284865 -0.0011006739
0.11879501 0.07914601 -0.10561379 -0.064229734 -0.10156062 0.0605229 0.12202213 -0.11737139
-0.082129665 -0.023306316 -0.12194614 -0.041268744 0.07797026 0.10496654 -0.025967535 -0.10410161
-0.12177385 0.03658364 0.10167708 0.06613674 0.010109294 0.06510355 -0.11661667 0.10279048
-0.011430896 -0.10414851 0.052628446 -0.06865083 0.10864149 -0.063066274 -0.060266588 0.10813268
0.08528797 0.031657554 0.032276414 0.03669152 -0.090540215 0.05990769 0.105000794 0.07546166
-0.07876783 0.086812355 -0.035173927 0.01641431 -0.018010192 -0.10321292 0.07655005 -0.08652174
0.033571966 0.011827474 -0.11790695 -0.056961894 0.11467889 0.038641416 -0.105465606 0.052239615
-0.060977824 0.12451361 -0.028759869 0.033385944 -0.110371366 -0.08702935 -0.09398854 -0.015805406
-0.029909581 0.017598962 0.068665795 0.04714679 -0.015344561 0.0026123603 -0.011409594 -0.10704117
0.10953362 -0.065006964 0.029938728 0.055413563 -0.06222203 0.11677751 0.08636876 0.11946601
-0.013970508 -0.045807246 -0.06290389 -0.11793733 -0.10067962 0.0034287449 -0.010193798 -0.025518209
0.10006509 -0.041856613 -0.084922574 0.09074821 -0.033267844 0.034743115 0.028482754 0.06889188
0.11328658 -0.0070044813 -0.08439359 0.091661416 -0.06203198 -0.065059975 0.10173517 -0.10052503
0.045082808 0.095392324 -0.08685366 -0.0800694 0.12441189 -0.1180837 0.04434922 0.03657549
0.086798176 0.034311593 -0.07496937 -0.12456842 0.0976055 -0.008105587 0.0076079667 0.03561628
0.11265432 0.023741739 0.102858566 0.043415952 -0.03362851 0.016164042 -0.018212965 -0.016634023
-0.00032957713 -0.02645821 0.020856446 -0.08282984 -0.118611634 -0.05290433 0.07354259 -0.06460268
-0.08050471 -0.013453338 0.08791875 0.105322786 0.007972591 0.08055732 -0.023490667 -0.030344564
-0.028283974 0.08590966 0.038582243 -0.021695014 0.113822035 -0.005722272 0.04957368 0.057733003
-0.04576247 0.081426576 -0.03153654 -0.12130995 -0.06581306 0.04944823 0.07732711 -0.017672982
00000000: 7636 c33d 6bb5 9d3d 10cd 113d e623 d03d
00000010: d4c1 f03d 520a 8dbc 33a3 30bd 8443 b3bd
00000020: 34ee 02bd 3794 46bd cce0 c2bb 295b bfbd
00000030: dfd4 783c 327a 67bd f85a 03bd d95b f83d
00000040: bc83 fbbd f473 1cbd 6119 bdbd cdf2 d13d
00000050: fe68 663d dd46 0fbc d6bb 723d 715c e9bd
00000060: 8860 92bb bd15 8d3c d958 ccbd 26ce afbc
00000070: efa9 e63d da08 ae3d b562 173c fd6a f73d
00000080: b720 7ebd a3d1 8b3d 25c7 07bc 6feb 253d
00000090: 7300 d8bc 2d10 433d 23aa 95bd 38f1 903d
000000a0: 25cc 2dbd c66a 2c3d 1b66 513d 09ba 823d
000000b0: 879f 623d e0e9 a5bd 8d5d 59bd 9c02 2c3d
000000c0: ae0a 543d aa69 3b3d 9f33 d73d 48bc d63d
000000d0: 65f7 9ebc ed3d a9bc 2f64 333d 1d60 42bd
000000e0: e426 e6bd 6bfd 7dbd 48f1 29bc 1701 76bd
000000f0: fd81 953d 0cb5 b5bd 3f27 1cbc 8a7b c8bd
00000100: 9cb0 49bc 7f2d 8abd 555e a7bd c72f 83bd
00000110: 9ac9 c8bc e8cc bcbc 06ec 583d 8b2b ab3d
00000120: bb2c 053d e11d 16bd dc21 c43d 5487 80bd
00000130: 8df2 ed3d 7447 a83d 158c 87bd 737f 273d
00000140: 4e8e cbbd 1153 91bd 83b0 003d 4855 9d3d
00000150: 1d44 e2bd 1b84 fb3d 7a93 b5bd bd4d f7bd
00000160: 569f 8a3d ac07 123d 8f53 bb3c 2514 8d3d
00000170: 56da 763c ca90 123d e532 2d3d 7d44 90ba
00000180: cc4a f33d 4e17 a23d 0b4c d8bd e18a 83bd
00000190: 04ff cfbd dce6 773d bde6 f93d 6960 f0bd
000001a0: 9933 a8bd e3ec bebc e6be f9bd 6a09 29bd
000001b0: dfae 9f3d b3f8 d63d deb9 d4bc 3a33 d5bd
000001c0: 9164 f9bd bad8 153d 133c d03d b372 873d
000001d0: 74a1 253c 0355 853d b8d4 eebd d183 d23d
000001e0: a748 3bbc d04b d5bd ed90 573d ce98 8cbd
000001f0: 6e7f de3d e428 81bd 19da 76bd ab74 dd3d
00000200: 76ab ae3d 5aab 013d 4634 043d d949 163d
00000210: 266d b9bd c461 753d a80a d73d a58b 9a3d
00000220: 0751 a1bd adca b13d 8912 10bd 4e77 863c
00000230: 1c8a 93bc 4c61 d3bd 46c6 9c3d 4f32 b1bd
00000240: c282 093d 06c8 413c 3379 f1bd e050 69bd
00000250: c4dc ea3d 7646 1e3d 5afe d7bd 35f9 553d
00000260: e2c3 79bd fe00 ff3d d199 ebbc b3bf 083d
00000270: 620a e2bd 723c b2bd 107d c0bd 577a 81bc
00000280: f004 f5bc b32b 903c a7a0 8c3d fe1c 413d
00000290: c167 7bbc 2234 2b3b 4eef 3abc 6738 dbbd
000002a0: 2a53 e03d 5f22 85bd 1042 f53c 55f9 623d
000002b0: 87dc 7ebd 0c29 ef3d 1be2 b03d 98aa f43d
000002c0: 8fe4 64bc 61a0 3bbd c1d3 80bd 2089 f1bd
000002d0: 1e31 cebd cbb4 603b e303 27bc 900b d1bc
000002e0: edee cc3d d771 2bbd e3eb adbd 33da b93d
000002f0: dd43 08bd cc4e 0e3d aa54 e93c 3017 8d3d
00000300: cb02 e83d d985 e5bb 8cd6 acbd fbb8 bb3d
00000310: 3f15 7ebd 2a3e 85bd 875a d03d 11e0 cdbd
00000320: c0a8 383d 0d5d c33d 55e0 b1bd 6dfb a3bd
00000330: a9cb fe3d ded5 f1bd 87a7 353d 2ed0 153d
00000340: 3ec3 b13d 508a 0c3d 8b89 99bd ba1d ffbd
00000350: 64e5 c73d 4ccd 04bc 404c f93b 60e2 113d
00000360: 4fb7 e63d 097e c23c 83a7 d23d edd4 313d
00000370: 0cbe 09bd 746a 843c 5b33 95bc 1344 88bc
00000380: 18cb acb9 e3be d8bc 23db aa3c b1a2 a9bd
00000390: a8ea f2bd 36b2 58bd 7f9d 963d 694e 84bd
000003a0: a7df a4bd 646b 5cbc bf0e b43d 79b3 d73d
000003b0: 789f 023c 3cfb a43d 806f c0bc 2a95 f8bc
000003c0: cbb3 e7bc 67f1 af3d 6a08 1e3d beb9 b1bc
000003d0: 871b e93d e681 bbbb c50d 4b3d 7179 6c3d
000003e0: 6e71 3bbd fac2 a63d 752c 01bd 5a71 f8bd
000003f0: ffc8 86bd 3a8a 4a3d ad5d 9e3d eec6 90bc

dec.weight_hh f4 [256, 64]
0.044025917 0.09353443 0.1110155 0.039579526 0.055080578 -0.030627806 -0.030343588 -0.11367297
0.058335647 0.02536965 0.0374249 -0.07980657 -0.12444842 0.06578661 -0.059268743 -0.04089572
0.036380533 0.0486795 -0.12020185 -0.032333214 0.10781687 0.02176346 -0.073630385 0.09979107
-0.11632168 0.012747164 0.028598512 0.012887243 0.114012115 0.023260668 -0.080582686 -0.018791966
-0.051864784 0.10397241 0.01608769 -0.11275043 0.00223955 -0.0002968418 0.008205837 0.029701935
0.0670983 -0.09966224 0.03799064 -0.06241871 0.081857875 -0.06796695 -0.08969572 -0.07168068
0.07234461 -0.023228727 0.108792596 -0.103820264 0.040778536 -0.044291493 0.018377151 0.07963379
0.06303117 -0.11662315 -0.018229388 0.051729415 -0.124214835 -0.09266466 -0.12393014 0.017312318
0.026841033 -0.05180857 0.05044998 0.018924393 0.05329543 0.109424636 -0.08364547 -0.09690917
0.118544295 -0.06469849 0.08787984 -0.042395014 -0.026767919 -0.055793997 0.037998237 -0.008058256
0.10030036 -0.12237524 -0.0029890265 0.018516343 0.040746313 0.09715281 0.04321963 -0.10848246
0.01723178 -0.053313866 0.07667598 -0.05429629 -0.01508286 0.032237016 0.08213601 -0.05983886
0.09315647 -0.08798042 -0.029626718 -0.07865054 0.026279675 -0.100908116 -0.0016580283 -0.08620427
0.080237396 -0.11321657 -0.054428864 -0.10629561 -0.078835614 0.009121616 0.059670288 0.062411785
-0.09883358 -0.022037782 -0.025969291 0.052574586 -0.012589406 -0.01654803 -0.0783239 -0.08709944
-0.005822501 0.058886264 -0.061916213 0.026996525 0.06108172 -0.044770617 0.11347519 0.11388085
0.07679336 0.052992336 -0.10009011 0.06416624 -0.014200268 0.09576297 -0.106921196 -0.008355537
0.1138312 0.027523821 0.044146728 -0.0008452129 -0.058916487 0.060901076 0.09936006 0.06803075
-0.07973639 -0.0845385 0.1252499 -0.011146725 0.049718183 0.039218657 -0.07862423 0.107842125
0.02305811 -0.057610646 0.11905274 0.04061049 0.026259588 -0.082365155 0.10814308 -0.0640513
-0.045102492 -0.120268606 0.03346115 -0.07123246 -0.11069253 0.08701839 -0.11612636 -0.026860839
-0.045818985 0.009878639 0.017524928 0.110313565 0.038038034 -0.043835822 -0.07449191 -0.031114759
0.0688798 -0.12061052 0.048622645 -0.005905402 -0.058901936 0.08340475 0.06423397 0.0041127647
-0.057703175 -0.074781395 -0.032324977 -0.073425256 -0.020108735 0.045739114 -0.015659418 0.014329107
-0.055411685 -0.029396784 0.075123936 -0.0065436 0.031054085 -0.08635871 -0.06068925 0.11007749
-0.0051078345 0.11249209 -0.052981045 0.06802552 0.057770886 -0.1050698 -0.076339014 0.10649862
-0.05206531 -0.111468986 0.077949114 0.10594952 0.09289169 0.06989171 -0.037048012 0.10068013
-0.057627957 0.039591864 -0.123952515 0.11208279 -0.07524839 -0.12861174 0.059321143 0.11229075
-0.09675189 0.11838067 0.028495466 0.06307774 0.020037513 -0.1162697 0.11175827 0.10602852
0.058562316 -0.0007760709 0.058082767 0.003624227 0.038878806 -0.002542499 0.122460246 -0.051177103
-0.021272933 0.037426434 0.10983638 -0.07952451 -0.052873846 -0.11545019 0.08743674 0.11540637
0.013297728 -0.10688028 -0.10009929 0.089233845 0.0032658214 0.022452554 -0.063661285 -0.0950282
00000000: 8554 343d fb8e bf3d 185c e33d 241e 223d
00000010: 2c9c 613d 2ae7 fabc 1e93 f8bc 60cd e8bd
00000020: 5cf1 6e3d 03d4 cf3c da4a 193d a171 a3bd
00000030: d0de febd 21bb 863d c8c3 72bd 4582 27bd
00000040: c103 153d 2864 473d 632c f6bd d56f 04bd
00000050: 17cf dc3d 4949 b23c 87cb 96bd 435f cc3d
00000060: 103a eebd 7bd9 503c 6d47 ea3c 0425 533c
00000070: 2f7f e93d 288d be3c 8908 a5bd 9cf1 99bc
00000080: 2b70 54bd 7def d43d 55ca 833c b3e9 e6bd
00000090: 6ac5 123b 6fa1 9bb9 c671 063c 7951 f33c
000000a0: d56a 893d b71b ccbd 139c 1b3d c3aa 7fbd
000000b0: 1aa5 a73d 4232 8bbd 64b2 b7bd 52cd 92bd
000000c0: 6929 943d 2c4a bebc a7ce de3d b89f d4bd
000000d0: 6507 273d ff6a 35bd ae8b 963c 0a17 a33d
000000e0: 7c16 813d 1ed8 eebd cc55 95bc 39e2 533d
000000f0: 5964 febd f8c6 bdbd 16cf fdbd 90d2 8d3c
00000100: bae1 db3c 3935 54bd a3a4 4e3d 5407 9b3c
00000110: 4f4c 5a3d 061a e03d 514e abbd 5178 c6bd
00000120: 5ac7 f23d a480 84bd 58fa b33d 65a6 2dbd
00000130: 6548 dbbc 3f88 64bd 0aa4 1b3d c606 04bc
00000140: 466a cd3d df9f fabd 8be3 43bb 96af 973c
00000150: 9be5 263d 0df8 c63d 1107 313d 0d2c debd
00000160: a929 8d3c a45f 5abd 4c08 9d3d c965 5ebd
00000170: 1a1e 77bc f60a 043d ed36 a83d 9819 75bd
00000180: d2c8 be3d 142f b4bd bbb3 f2bc 8913 a1bd
00000190: 7948 d73c eaa8 cebd 3352 d9ba dd8b b0bd
000001a0: 8153 a43d 17de e7bd cdf0 5ebd 83b1 d9bd
000001b0: 9174 a1bd d572 153c d568 743d 80a3 7f3d
000001c0: 4369 cabd 9488 b4bc 8dbd d4bc 7358 573d
000001d0: cc43 4ebc bc8f 87bc 4868 a0bd 3161 b2bd
000001e0: aeca bebb b932 713d db9b 7dbd d127 dd3c
000001f0: d330 7a3d 6561 37bd ae65 e83d 5d3a e93d
00000200: d645 9d3d 7e0e 593d 0bfc ccbd 9769 833d
00000210: 3ea8 68bc 601f c43d 80f9 dabd aae5 08bc
00000220: 5520 e93d a379 e13c 33d3 343d 4791 5dba
00000230: 6a52 71bd 6873 793d 4a7d cb3d b553 8b3d
00000240: d54c a3bd 8522 adbd 8341 003e c1a0 36bc
00000250: 4ba5 4b3d bea3 203d be05 a1bd 55dc dc3d
00000260: 5de4 bc3c 24f9 6bbd ecd1 f33d 2f57 263d
00000270: 591e d73c 10af a8bd 1e7a dd3d 542d 83bd
00000280: 64bd 38bd 634f f6bd 8f0e 093d 53e2 91bd
00000290: c4b2 e2bd b336 b23d a8d3 edbd 430b dcbc
000002a0: b0ac 3bbd 04da 213c 7090 8f3c 14ec e13d
000002b0: c5cd 1b3d 318d 33bd 378f 98bd 61e4 febc
000002c0: da10 8d3d a602 f7bd 8a28 473d 1a82 c1bb
000002d0: 2843 71bd 1cd0 aa3d 1a8d 833d 5fc4 863b
000002e0: 2a5a 6cbd fd26 99bd 3267 04bd fb5f 96bd
000002f0: 13bb a4bc f058 3b3d 2e48 80bc a1c4 6a3c
00000300: 5df7 62bd 86d1 f0bc 94da 993d b26b d6bb
00000310: 2365 fe3c d6dc b0bd 4a95 78bd 4f70 e13d
00000320: 9f5f a7bb 4162 e63d a702 59bd f750 8b3d
00000330: 2aa1 6c3d d62e d7bd a157 9cbd f31b da3d
00000340: 6f42 55bd da49 e4bd c9a3 9f3d 10fc d83d
00000350: 003e be3d 6323 8f3d a8bf 17bd 6231 ce3d
00000360: 4b0b 6cbd 142b 223d d1da fdbd a98b e53d
00000370: d41b 9abd ccb2 03be bafa 723d b1f8 e53d
00000380: db25 c6bd 9171 f23d 536f e93c e72e 813d
00000390: b625 a43c cf1e eebd 85e1 e43d 7b25 d93d
000003a0: 0adf 6f3d 3d71 4bba 32e8 6d3d 7084 6d3b
000003b0: 623f 1f3d 0ea0 26bb 70cc fa3d 159f 51bd
000003c0: 9344 aebc 764c 193d e5f1 e03d bfdd a2bd
000003d0: 3f92 58bd 2671 ecbd 0912 b33d 2d5a ec3d
000003e0: b7de 593c 0ce4 dabd db00 cdbd 3cc0 b63d
000003f0: 6407 563b 6bee b73c d960 82bd 259e c2bd

dec.bias_ih f4 [256]
-0.09828396 0.09461566 0.09532071 0.1480224 0.010959225 0.034412637 0.086087145 0.049408063
-0.031158064 -0.13050818 -0.001870407 -0.018707054 -0.014248017 0.13106298 0.13511233 -0.07795385
-0.1051036 0.08662142 0.057203732 0.00036453063 -0.012228096 -0.11783195 0.035750896 -0.022393838
0.021828279 0.05536749 -0.011914746 -0.12161495 0.018864557 0.1596888 -0.09954897 -0.062596075
0.031947322 0.04527361 -0.02725456 0.079013534 -0.012602796 -0.030993283 0.08534121 -0.032441724
-0.0977287 0.10116904 -0.19921646 -0.10718575 0.08988547 0.109437354 -0.16759084 -0.036756948
-0.077274114 -0.0046029333 -0.07838079 0.08768392 0.046087142 -0.034926027 0.18600582 0.05773855
-0.08952059 -0.06620709 0.07918609 0.017563576 0.027877552 -0.052959066 0.056482315 -0.09355121
-0.013589297 -0.04059962 0.0292919 0.09871249 -0.06105077 -0.02235404 0.057782974 0.1616245
-0.12398719 -0.05549084 -0.056140166 0.065727204 -0.020087337 -0.06290207 0.022568615 0.07653772
-0.02683204 0.06213072 0.11314892 0.0044673095 0.0073981932 -0.14503308 -0.060603883 -0.10574704
0.057139687 0.053134263 -0.107122146 -0.025410285 0.047365412 -0.029154414 -0.22463374 -0.08423234
0.05285479 0.009837022 -0.042242225 -0.049407065 0.021611592 -0.050238814 0.049616672 -0.089341335
-0.15700006 -0.037749674 -0.09757764 0.083446786 -0.13325143 -0.13331531 -0.002436691 -0.037598643
0.0031750824 0.0017870148 -0.027435906 0.07901228 -0.09008201 -0.085600525 0.06358632 0.098805
-0.053113274 0.005072394 -0.04555139 -0.0013506922 0.03811667 0.04466321 0.15852317 0.107396044
-0.033408064 0.09478318 -1.146331 1.9264412 0.81089216 0.3682912 -0.2024702 0.48382723
0.390461 0.94897264 0.33816737 -1.4629812 0.3488658 0.57646143 -0.66019696 0.04095763
0.10576542 1.1073534 0.047380794 -0.8773058 0.38696003 1.1785624 -0.86130255 1.2364802
1.4650167 -0.55988556 1.4055376 0.6176121 -0.06657418 -0.90837497 -1.9042287 -0.8036638
-1.6713308 2.2334497 0.06915918 -0.27289787 1.0219628 0.16791026 0.17914632 0.5453173
1.0744911 -1.5838269 -0.6991708 -0.04541725 1.4106964 -0.1783536 -1.5945132 -0.8006724
2.1073914 2.258881 -0.2038072 -0.14619814 -0.2273445 1.6750253 -1.5166901 1.1899132
1.6430198 1.8013996 0.038169716 1.1559417 -0.2594735 -0.7202796 1.256381 0.40876785
0.079333365 -0.01064076 -0.04271702 0.102079 -0.010274468 0.07274776 -0.112084076 0.11023405
-0.012988085 0.0008216644 -0.051965386 -0.026469419 -0.10268939 -0.03544254 0.054859594 0.026336925
0.12870324 -0.0042690937 0.115918145 -0.0015674145 -0.06439343 -0.044816118 0.009812146 -0.047864832
0.031268828 0.09362264 -0.13774902 0.0048509506 0.02295813 -0.03212385 -0.03878962 0.060086586
-0.017129311 -0.029178454 0.006243299 -0.03509513 -0.03936834 -0.018239988 -0.042587113 -0.022133581
0.017144842 0.07931274 0.027616175 0.11018778 -0.056520876 -0.11079122 -0.22369096 0.16441043
0.046175763 0.048203714 0.07173987 -0.10905024 -0.11379269 -0.07880048 0.17794794 0.067037016
0.02759106 -0.10658833 0.052297726 0.017974928 -0.07361087 -0.015413369 0.062515326 -0.008485864
00000000: 1a49 c9bd dbc5 c13d 8137 c33d 2f93 173e
00000010: 528e 333c 44f4 0c3d 754e b03d 1c60 4a3d
00000020: 323f ffbc f0a3 05be 7228 f5ba 893f 99bc
00000030: 8470 69bc 6035 063e e35a 0a3e 45a6 9fbd
00000040: 8e40 d7bd 9266 b13d 764e 6a3d 791e bf39
00000050: 5a58 48bc e151 f1bd 886f 123d 4873 b7bc
00000060: 38d1 b23c 05c9 623d 1136 43bc 4211 f9bd
00000070: d889 9a3c 7685 233e 55e0 cbbd 5f32 80bd
00000080: 32db 023d d270 393d f444 dfbc d9d1 a13d
00000090: f57b 4ebc a0e5 fdbc 5fc7 ae3d 9de1 04bd
000000a0: fc25 c8bd b731 cf3d 66ff 4bbe 3484 dbbd
000000b0: e015 b83d b120 e03d ef9c 2bbe 748e 16bd
000000c0: e441 9ebd 34d4 96bb 1c86 a0bd a193 b33d
000000d0: dfc5 3c3d 980e 0fbd 4f78 3e3e 427f 6c3d
000000e0: 9256 b7bd 9597 87bd 512c a23d 7de1 8f3c
000000f0: 775f e43c 9beb 58bd 005a 673d c797 bfbd
00000100: a5a5 5ebc ca4b 26bd 91f5 ef3c c629 ca3d
00000110: 5f10 7abd d21f b7bc d7ad 6c3d e580 253e
00000120: ffec fdbd 5d4a 63bd 3bf3 65bd fc9b 863d
00000130: 338e a4bc cdd2 80bd d1e1 b83c cfbf 9c3d
00000140: dece dbbc c87c 7e3d 9fba e73d 8262 923b
00000150: 8b6c f23b 8d83 14be c73b 78bd e791 d8bd
00000160: 4e0b 6a3d 50a3 593d db62 dbbd 3b29 d0bc
00000170: 3c02 423d 3dd5 eebc 6306 66be 0182 acbd
00000180: 447e 583d 762b 213c 2f06 2dbd 105f 4abd
00000190: cb0a b13c 37c7 4dbd da3a 4b3d 97f8 b6bd
000001a0: a0c4 20be 679f 1abd c9d6 c7bd 26e6 aa3d
000001b0: 1073 08be cf83 08be e4b0 1fbb 0901 1abd
000001c0: 0b15 503b 443a ea3a 44c1 e0bc 31d1 a13d
000001d0: eb7c b8bd 544f afbd 8b39 823d 475a ca3d
000001e0: 4e8d 59bd 5336 a63b 1894 3abd b609 b1ba
000001f0: 3a20 1c3d c5f0 363d e653 223e 75f2 db3d
00000200: e5d6 08bd af1d c23d f9ba 92bf a095 f63f
00000210: a196 4f3f aa90 bc3e 5954 4fbe 34b8 f73e
00000220: 81ea c73e dfef 723f 4624 ad3e f842 bbbf
00000230: 8a9e b23e fa92 133f ab02 29bf 30c3 273d
00000240: 8a9b d83d c2bd 8d3f 5d12 423d 1d97 60bf
00000250: a01f c63e 22db 963f 537e 5cbf fc44 9e3f
00000260: ab85 bb3f a954 0fbf a8e8 b33f d41b 1e3f
00000270: 0b58 88bd 438b 68bf c4bd f3bf e9bc 4dbf
00000280: 2bee d5bf d7f0 0e40 54a3 8d3d 45b9 8bbe
00000290: adcf 823f abf0 2b3e 2272 373e ea99 0b3f
000002a0: ed88 893f d7ba cabf dcfc 32bf 7007 3abd
000002b0: b391 b43f 53a2 36be 0219 ccbf def8 4cbf
000002c0: 80df 0640 8291 1040 d6b2 50be f7b4 15be
000002d0: ffcc 68be 3b67 d63f e722 c2bf 134f 983f
000002e0: 794e d23f 4394 e63f d957 1c3d e6f5 933f
000002f0: b6d9 84be 3e64 38bf 18d1 a03f 054a d13e
00000300: 8879 a23d 9556 2ebc 0bf8 2ebd cb0e d13d
00000310: 3e56 28bc c7fc 943d 568c e5bd 64c2 e13d
00000320: facb 54bc f764 573a a8d9 54bd 65d6 d8bc
00000330: d14e d2bd 322c 11bd 74b4 603d 89c0 d73c
00000340: c8ca 033e c1e3 8bbb 7e66 ed3d b471 cdba
00000350: b4e0 83bd 1b91 37bd 20c3 203c ea0d 44bd
00000360: be13 003d 3abd bf3d 140e 0dbe b9f4 9e3b
00000370: b012 bc3c 4c94 03bd dde1 1ebd 5a1d 763d
00000380: c552 8cbc a707 efbc 9794 cc3b e9bf 0fbd
00000390: b240 21bd 076c 95bc d36f 2ebd 7c51 b5bc
000003a0: 5773 8c3c b86e a23d 513b e23c 21aa e13d
000003b0: 6f82 67bd 82e6 e2bd 3e0f 65be 355b 283e
000003c0: cc22 3d3d 4271 453d 5aec 923d bb55 dfbd
000003d0: 240c e9bd 2562 a1bd fc37 363e b44a 893d
000003e0: a606 e23c fb4a dabd 2436 563d 2840 933c
000003f0: 4cc1 96bd 5b88 7cbc 0908 803d 4b08 0bbc
